cibil_analyzer/credit_score_model.pt (torch, 6390 bytes, 5 tensors)

net.0.weight f4 [32, 10]
0.10619128 0.2566181 -0.18366612 0.35730824 -0.017963594 0.04618026 -0.18311025 0.09451331
0.26559547 -0.23682596 0.29479477 -0.13446009 0.2148601 -0.06238441 0.15547809 -0.014010205
0.28477257 0.15280882 -0.19661346 0.22112577 -0.14884168 -0.07945028 -0.09897546 0.17835768
-0.21302703 -0.18169172 -0.027436186 -0.13316418 0.0949126 -0.2724428 0.29924428 -0.21185423
0.17826325 0.03291798 -0.17352416 0.21599516 0.06234228 0.31089503 0.07509216 -0.07251032
0.015851982 0.017140696 0.16750048 0.2730145 0.13110565 -0.26851538 0.13485086 -0.01485224
0.10858509 -0.031760916 -0.31728467 -0.04503297 -0.16497359 0.28706086 0.008855184 0.020856433
0.09429214 0.07027463 0.20072621 -0.15765847 -0.04005737 -0.18350025 -0.00987228 -0.023832051
0.105218016 0.026476072 0.28363 -0.17094432 -0.13093132 -0.2072074 0.27712694 -0.14327283
0.34283653 -0.30378997 -0.40361798 -0.20996141 -0.15308076 0.28642252 0.13949087 0.25688398
-0.21702443 -0.12824434 -0.0019124935 -0.01764588 0.27631268 -0.059404787 0.1740207 -0.3254323
-0.11702594 0.03742247 -0.023350995 -0.004177423 0.06517778 0.2828285 -0.15058383 -0.049295545
0.27432406 -0.17137939 -0.13849987 -0.3345454 -0.270763 0.13566998 -0.23363297 -0.17267548
0.08032713 -0.15019971 -0.13301407 -0.23649965 -0.095761456 -0.11150754 0.35832012 -0.06374893
0.1325326 -0.44110176 -0.24238703 -0.09828975 0.102589756 -0.07234647 -0.15610541 -0.109837025
-0.14021502 -0.0058789887 -0.11674219 -0.16596647 -0.16100298 -0.15408462 -0.10546155 -0.27262998
0.30349228 -0.12328849 0.0622973 0.13167173 -0.33996555 0.2638845 -0.0038438526 -0.1413513
-0.32617605 -0.437841 -0.0054522417 0.012071646 0.06147655 -0.21694733 0.20404239 -0.21154594
-0.02775728 0.16202964 0.1481738 0.20277172 0.2774787 -0.28106794 0.23133637 -0.1643321
0.19143823 -0.35190618 0.1787374 -0.12638487 0.20778221 0.24551988 0.066602595 -0.07220901
0.23368813 0.11029707 -0.0878293 -0.25464958 0.09956667 0.113623045 -0.26598972 0.19626819
0.057657354 -0.1699249 -0.2738376 0.10359785 0.011674773 0.045878712 -0.03712362 -0.040538084
-0.28836596 0.028520878 0.23027319 -0.27746123 0.17316683 0.056530222 -0.058955226 -0.054482795
0.09316646 0.21079046 0.12024487 -0.062106024 -0.04730226 0.10257425 -0.26079774 0.024903418
-0.072474636 0.33948115 0.067947365 0.042667814 -0.06731956 -0.033077013 0.04889334 0.11103736
-0.36379516 0.012568322 0.06796617 0.25162753 0.019130573 -0.14751232 -0.20693786 -0.31393144
0.025172532 0.18395898 0.009692062 0.20632453 -0.29256248 -0.03193346 0.12169063 0.30859417
0.051813174 -0.23298855 0.07967432 -0.14538975 -0.105190754 0.16445424 -0.11313961 0.0386257
-0.2964878 0.16567352 0.24552412 0.2178003 -0.34804997 -0.30013105 -0.36782727 0.28884715
-0.11937589 0.42556894 0.25241753 0.20719169 0.0007559044 -0.35136536 -0.0970259 -0.28647992
0.21748455 -0.26115856 0.078226514 -0.35466176 -0.13751668 -0.16780898 -0.054128036 0.21257298
-0.038594358 0.30635464 -0.2842539 0.08572917 -0.22745632 0.017395345 0.035305552 -0.37721196
00000000: d07a d93d 7363 833e f912 3cbe 1bf1 b63e
00000010: 6328 93bc 8327 3d3d 4181 3bbe 3290 c13d
00000020: 21fc 873e 8182 72be 57ef 963e e8af 09be
00000030: 4904 5c3e cc86 7fbd a635 1f3e 0f8b 65bc
00000040: b6cd 913e ea79 1c3e 0a55 49be cb6e 623e
00000050: f469 18be d4b6 a2bd a5b3 cabd 65a3 363e
00000060: c223 5abe 650d 3abe dac1 e0bc 315c 08be
00000070: 8a61 c23d 9f7d 8bbe 8c36 993e 51f0 58be
00000080: a48a 363e 01d5 063d 51b0 31be d62d 5d3e
00000090: 9e5a 7f3d a22d 9f3e ebc9 993d 4a80 94bd
000000a0: 04dc 813c a56a 8c3c 3f85 2b3e 8ec8 8b3e
000000b0: 8f40 063e d97a 89be 5816 0a3e cf56 73bc
000000c0: dc61 de3d bc17 02bd 2373 a2be 7e74 38bd
000000d0: d6ee 28be a4f9 923e 5515 113c 1cdb aa3c
000000e0: 3d1c c13d 25ec 8f3d 2c8b 4d3e 3971 21be
000000f0: 3213 24bd 7de7 3bbe 58bf 21bc 6f3b c3bc
00000100: 8b7c d73d 59e4 d83c f437 913e 070c 2fbe
00000110: dc12 06be 2d2e 54be 95e3 8d3e 1db6 12be
00000120: 4588 af3e 5c8a 9bbe 04a7 cebe 2000 57be
00000130: 34c1 1cbe f9a5 923e b2d6 0e3e 4c86 833e
00000140: a73b 5ebe 7c52 03be a2ac faba 188e 90bc
00000150: db78 8d3e 6f52 73bd 7b32 323e 109f a6be
00000160: 4cab efbd 4e48 193d 964a bfbc c4e2 88bb
00000170: ee7b 853d e6ce 903e a632 1abe 20ea 49bd
00000180: 3474 8c3e 147e 2fbe e9d2 0dbe 8949 abbe
00000190: 73a1 8abe 12ed 0a3e 7b3d 6fbe d7d1 30be
000001a0: 8d82 a43d f4cd 19be d734 08be f72c 72be
000001b0: 951e c4bd 115e e4bd bc75 b73e cd8e 82bd
000001c0: a0b6 073e 17d8 e1be 4e34 78be 234c c9bd
000001d0: 941a d23d 632a 94bd 19da 1fbe 3cf2 e0bd
000001e0: 8794 0fbe 88a4 c0bb 8816 efbd 1df3 29be
000001f0: f7dd 24be 5cc8 1dbe 3afc d7bd 2896 8bbe
00000200: 5763 9b3e ad7e fcbd 742b 7f3d f4d4 063e
00000210: f70f aebe df1b 873e 25e9 7bbb 65be 10be
00000220: 8c00 a7be b22c e0be b8a8 b2bb 27c8 453c
00000230: d6ce 7b3d 7127 5ebe 7df0 503e 809f 58be
00000240: 3c63 e3bc 19eb 253e dfba 173e 64a3 4f3e
00000250: b011 8e3e 23e8 8fbe 71e3 6c3e ad46 28be
00000260: 6208 443e 0c2d b4be f006 373e 096b 01be
00000270: dcc4 543e 9069 7b3e f166 883d 51e2 93bd
00000280: f14b 6f3e 6ee3 e13d d9df b3bd 6e61 82be
00000290: 9ce9 cb3d 33b3 e83d ce2f 88be 87fa 483e
000002a0: 1e2a 6c3d cb00 2ebe 7134 8cbe 1c2b d43d
000002b0: 8c47 3f3c 51eb 3b3d f00e 18bd 430b 26bd
000002c0: b4a4 93be 9ea4 e93c bccc 6b3e 660f 8ebe
000002d0: a552 313e 3c8c 673d 097b 71bd 5a29 5fbd
000002e0: 0fce be3d 74d9 573e f142 f63d e362 7ebd
000002f0: 04c0 41bd 7312 d23d 4887 85be 4102 cc3c
00000300: 956d 94bd 79d0 ad3e fd27 8b3d 72c4 2e3d
00000310: d6de 89bd c37b 07bd 6244 483d 8e67 e33d
00000320: 5c43 babe 5deb 4d3c d931 8b3d 53d5 803e
00000330: b8b7 9c3c 780d 17be 85e7 53be 9fbb a0be
00000340: a036 ce3c be5f 3c3e 74cb 1e3c bd46 533e
00000350: c0ca 95be a9cc 02bd f038 f93d 0e00 9e3e
00000360: 0d3a 543d 8d94 6ebe 4a2c a33d 0de1 14be
00000370: 406e d7bd b166 283e bdb5 e7bd fb35 1e3d
00000380: 40cd 97be 52a6 293e ad6a 7b3e 0b07 5f3e
00000390: 9b33 b2be c7aa 99be db53 bcbe c6e3 933e
000003a0: 597b f4bd 2ce4 d93e df3c 813e 0f2a 543e
000003b0: e327 463a 29e6 b3be 84b5 c6bd 7fad 92be
000003c0: 45b4 5e3e 93b6 85be 3935 a03d 3a96 b5be
000003d0: 2cd1 0cbe 1ed6 2bbe 5cb5 5dbd bbac 593e
000003e0: 1e15 1ebd 84da 9c3e ba89 91be c692 af3d
000003f0: 4fea 68be af80 8e3c 8e9c 103d ed21 c1be

net.0.bias f4 [32]
-0.16471468 -0.16103448 0.18293667 0.011402019 -0.2693521 -0.26962882 -0.21235847 -0.18660706
-0.1562256 0.014553124 0.3601835 0.0022086902 -0.14253013 -0.13744798 0.09212075 -0.2269929
-0.07438192 0.2908965 -0.19506246 0.058790833 0.08893839 0.07097968 -0.14238837 -0.14420956
-0.0712302 0.022304226 0.30193165 -0.24090305 -0.17983486 0.089456305 0.2323076 0.30073047
00000000: f7aa 28be 39e6 24be c053 3b3e 89cf 3a3c
00000010: 85e8 89be ca0c 8abe 8074 59be ec15 3fbe
00000020: 9bf9 1fbe 3a70 6e3c f969 b83e acbf 103b
00000030: 6bf3 11be 2abf 0cbe cea9 bc3d d470 68be
00000040: 8c55 98bd 63f0 943e 74be 47be a8ce 703d
00000050: 5525 b63d cb5d 913d 42ce 11be acab 13be
00000060: 24e1 91bd 5ab7 b63c c996 9a3e 4aaf 76be
00000070: a126 38be de34 b73d 0be2 6d3e 58f9 993e

net.2.weight f4 [16, 32]
0.1534745 -0.00020324129 -0.1103869 -0.06585653 0.07566104 0.026474005 -0.14338405 0.122159936
-0.04737491 -0.17922594 -0.13789873 -0.060544893 0.055669956 0.08538741 -0.034974243 -0.20636262
-0.18643263 0.018887054 0.16490266 0.15583216 0.05914489 -0.042872295 -0.1868745 -0.037140895
-0.037843835 -0.0027495727 0.08107723 -0.13914736 0.11484712 -0.15105084 0.014381096 0.15311036
-0.030466734 0.16419825 -0.08215627 -0.08829638 0.096345015 0.049010877 -0.039819878 -0.09790945
0.122998156 0.065928504 0.10762895 -0.0559501 -0.12826931 0.056165505 0.05273204 -0.050648283
-0.09052601 0.15010543 -0.009819493 0.09667937 -0.0044232304 -0.114512116 -0.12093917 -0.0026537557
-0.11570768 0.09129798 0.029882776 -0.017632216 0.13205013 0.10920361 0.21119283 -0.012159569
-0.13540153 0.041712314 -0.03824694 -0.19204822 -0.03090972 0.026462106 -0.1505725 -0.015540974
0.11810209 0.03373753 0.016907422 -0.15430675 -0.10344474 0.06530437 0.03173264 -0.0056942194
-0.19094731 0.110212095 -0.15626116 0.19164908 -0.024367012 -0.011558119 0.03513256 0.09299823
-0.17731996 0.1312453 -9.437858e-05 0.15513617 0.10217695 -0.066447325 -0.09077864 0.19884704
0.13585 -0.09433622 0.047259893 -0.107728906 -0.12435625 0.11023984 0.01689678 0.054448884
-0.07457941 0.1795033 0.058062617 -0.0907168 0.007816547 0.07708198 0.06780518 -0.19530569
0.01141097 -0.056202997 -0.116524704 -0.00549341 0.21115766 0.1860914 0.20371753 0.17480905
0.06475323 0.018860081 -0.07727386 0.13228327 -0.11616709 -0.14636682 0.007284631 0.0967375
0.08584446 -0.07443842 -0.03116923 0.0072104307 -0.116394155 -0.027039498 0.07194895 -0.046480812
0.15228869 0.15814574 0.106308036 0.081774205 0.06952362 0.03689279 -0.023858584 0.012223262
0.023160255 0.20487702 -0.10197861 0.023097262 0.0029256644 -0.058624573 0.06834136 0.2060683
0.11534411 0.121701024 -0.08448599 -0.044167463 -0.05689493 0.026152417 0.09853732 -0.07879754
0.0039549996 -0.15691163 -0.04533892 -0.20107712 0.09585346 -0.05079147 0.037973925 -0.08086009
-0.050338455 0.038341347 0.062863894 0.053351916 0.12751223 -0.09300839 0.010174745 -0.001326233
-0.0011977061 0.07583541 0.0552374 0.062593 0.09267733 0.18100213 0.12878884 0.075467646
-0.34821033 0.0807547 -0.17268524 0.09958606 -0.1272836 0.0016135091 0.025356814 0.11526915
0.12027553 -0.044844728 0.1652443 0.051999003 0.11821783 0.02166336 -0.10706957 -0.0036434676
-0.042264033 0.018015742 0.04291375 -0.18128648 0.05994933 0.057274226 0.020762661 0.10733844
0.0421254 0.22558159 -0.06488365 -0.027352175 -0.012394481 -0.09978045 -0.11095397 0.004825231
-0.24119265 -0.0955572 -0.1346472 -0.1611731 -0.15113497 0.1200559 0.22921306 -0.046995234
0.08155439 0.2714133 -0.14221793 0.10003675 0.21516603 -0.2376127 0.09725422 0.28561747
0.14323966 0.14359744 -0.09466371 0.059100263 0.059989497 0.12501726 0.20301332 0.32242274
0.0249214 0.08279767 0.069563456 -0.12079238 0.08425475 -0.058106307 0.18346271 0.020642644
0.10587474 0.12075017 -0.049957104 0.06690186 0.086320184 -0.10820743 -0.024487145 0.0509444
00000000: 6b28 1d3e 2b1d 55b9 8712 e2bd cadf 86bd
00000010: 2df4 9a3d 03e0 d83c 45d3 12be fd2e fa3d
00000020: 320c 42bd 0187 37be 5335 0dbe ecfd 77bd
00000030: 2e06 643d 98df ae3d 2741 0fbd b950 53be
00000040: 32e8 3ebe 06b9 9a3c 3edc 283e 7792 1f3e
00000050: ea41 723d dc9a 2fbd 075c 3fbe 0d21 18bd
00000060: 2302 1bbd 2d32 34bb d20b a63d a57c 0ebe
00000070: f834 eb3d 12ad 1abe b09e 6b3c f6c8 1c3e
00000080: 5f95 f9bc 9623 283e 8c41 a8bd bcd4 b4bd
00000090: 8950 c53d a1bf 483d 2b1a 23bd c084 c8bd
000000a0: 75e6 fb3d 8605 873d 916c dc3d ef2b 65bd
000000b0: 0859 03be cd0d 663d 8dfd 573d 9374 4fbd
000000c0: b365 b9bd 3db5 193e f0e1 20bc d5ff c53d
000000d0: bff0 90bb 5485 eabd f5ae f7bd a2ea 2dbb
000000e0: 26f8 ecbd 6ffa ba3d b9cc f43c 7071 90bc
000000f0: 2638 073e 24a6 df3d ef42 583e ee38 47bc
00000100: b3a6 0abe 88da 2a3d d3a8 1cbd 4aa8 44be
00000110: 6236 fdbc 0fc7 d83c ad2f 1abe 929f 7ebc
00000120: 82df f13d 5d30 0a3d 6f81 8a3c 9702 1ebe
00000130: d6da d3bd 4cbe 853d 16fa 013d 9396 babb
00000140: b187 43be e1b6 e13d ed02 20be a83f 443e
00000150: 549d c7bc 445e 3dbc 29e7 0f3d db75 be3d
00000160: 5d93 35be 2b65 063e 1ded c5b8 04dc 1e3e
00000170: 2642 d13d 8915 88bd 27ea b9bd 8f9e 4b3e
00000180: 431c 0b3e 5933 c1bd 9793 413d f9a0 dcbd
00000190: 7dae febd 6dc5 e13d 1e6b 8a3c cb05 5f3d
000001a0: 17bd 98bd b7cf 373e 11d3 6d3d bbc9 b9bd
000001b0: f910 003c 28dd 9d3d 71dd 8a3d 37fe 47be
000001c0: 14f5 3a3c 1d35 66bd 81a4 eebd 1002 b4bb
000001d0: b739 583e be8e 3e3e 549b 503e 2501 333e
000001e0: 579d 843d 7580 9a3c c241 9ebd 4475 073e
000001f0: 03e9 edbd 2fe1 15be eab3 ee3b 4f1e c63d
00000200: 38cf af3d 2c73 98bd 9d56 ffbc 7a45 ec3b
00000210: 0f60 eebd f081 ddbc f959 933d aa62 3ebd
00000220: 91f1 1b3e f5f0 213e 07b8 d93d 3c79 a73d
00000230: 6662 8e3d e51c 173d 1473 c3bc 1444 483c
00000240: 93ba bd3c 48cb 513e 29da d0bd 7836 bd3c
00000250: 81bc 3f3b 5220 70bd 8ef6 8b3d 9203 533e
00000260: 8839 ec3d 633e f93d fe06 adbd f1e8 34bd
00000270: a80a 69bd 983d d63c efcd c93d 9b60 a1bd
00000280: f198 813b 71ad 20be 4eb5 39bd 29e7 4dbe
00000290: d24e c43d b70a 50bd 8c8a 1b3d fa99 a5bd
000002a0: b22f 4ebd d10b 1d3d c9be 803d 8a87 5a3d
000002b0: 9192 023e 2f7b bebd f9b3 263c ffd4 adba
000002c0: 59fc 9cba 984f 9b3d 9d40 623d c230 803d
000002d0: 9dcd bd3d 9f58 393e 39e1 033e c88e 9a3d
000002e0: a048 b2be b862 a53d 66d4 30be c7f3 cb3d
000002f0: a256 02be 627c d33a 18b9 cf3c 3b12 ec3d
00000300: 0453 f63d 1baf 37bd cd35 293e e8fc 543d
00000310: 311c f23d 5c77 b13c 4a47 dbbd 3ec7 6ebb
00000320: 0d1d 2dbd c095 933c 54c6 2f3d 2aa3 39be
00000330: 6e8d 753d 6198 6a3d 7516 aa3c 42d4 db3d
00000340: af8b 2c3d dcfe 663e b8e1 84bd ab11 e0bc
00000350: 3912 4bbc b159 ccbd d63b e3bd f91c 9e3b
00000360: 35fb 76be 7eb3 c3bd f5e0 09be 900a 25be
00000370: 20c3 1abe dedf f53d d4b6 6a3e 137e 40bd
00000380: fd05 a73d aff6 8a3e 94a1 11be 11e0 cc3d
00000390: 7c54 5c3e be50 73be 382d c73d 743c 923e
000003a0: 6bad 123e 350b 133e 0cdf c1bd 1e13 723d
000003b0: 8cb7 753d 8604 003e b9e2 4f3e 9814 a53e
000003c0: f727 cc3c d391 a93d 4977 8e3d ff61 f7bd
000003d0: c18d ac3d e100 6ebd a6dd 3b3e c31a a93c
000003e0: dbd4 d83d dd4b f73d d29f 4cbd d803 893d
000003f0: a3c8 b03d db9b ddbd 4499 c8bc 13ab 503d

net.2.bias f4 [16]
-0.09411104 0.27221957 0.2171876 0.13536821 0.1336051 -0.05318391 0.039161593 0.102473445
-0.10411448 0.12714028 0.034990765 -0.15435989 0.075443484 0.15303685 0.20437364 0.05086126
00000000: 4abd c0bd 5d60 8b3e 6d66 5e3e f79d 0a3e
00000010: c6cf 083e 5fd7 59bd e867 203d 99dd d13d
00000020: f939 d5bd 1031 023e 7a52 0f3d 8510 1ebe
00000030: 1d82 9a3d b1b5 1c3e 5347 513e e653 503d

net.4.weight f4 [1, 16]
0.06879826 0.18992577 0.10915427 0.2131399 0.20291694 0.18015188 0.2042447 -0.1850658
-0.27654746 0.117577344 0.051400956 -0.10202634 0.02353189 0.09329831 0.19835308 0.12281668
00000000: 1ae6 8c3d e77b 423e 468c df3d 5941 5a3e
00000010: 75c9 4f3e bc79 383e 8625 513e e481 3dbe
00000020: a197 8dbe 64cc f03d cf89 523d 30f3 d0bd
00000030: f3c5 c03c 2f13 bf3d 121d 4b3e 5087 fb3d
