cibil_analyzer/credit_score_model.pt (torch, 5750 bytes, 5 tensors)

net.0.weight f4 [32, 5]
00000000: b9cf 553e 3a94 cb3e 88d5 c7bd 65a8 ca3e
00000010: c404 ecbd 7c6c 1f3e c4be 8cbe f9f7 9e3e
00000020: dfe6 b83e e5fb 7cbe a72c e33e bfe6 833d
00000030: dc2a 813e 95bd 3b3e 0796 443e 04de 33be
00000040: 8197 c03e 44df 50bd 8448 55be 1d06 563e
00000050: bfe8 8dbe 1b1e b03d 4c44 75be 117f 713e
00000060: cddc a4be 78ef 1abe c3c2 51be d874 16be
00000070: d0ee 213e ee94 cebe c00d be3e 536a 03bf
00000080: 4842 873e 2fd4 313e 4cd2 0ebe aa59 c03e
00000090: aaca 043d 410e c33e c811 ca3d e8bc 5ebd
000000a0: 0766 ec3d 40fb 493c 5dca a03e ecbe a73e
000000b0: 98d5 bc3e 5226 92be aad4 423e 396f 0d3e
000000c0: cf1c 8d3e 6fe2 12be 25ff fcbe 6524 92bd
000000d0: d949 9cbe 73cd d13e 469a 463e f3f6 1f3e
000000e0: f076 4c3e c2c4 d8bc ac6f 983e c0d6 a9be
000000f0: 0ada 46bd 37b1 5bbe 7d83 063e 4f99 37be
00000100: 8c65 243e 7808 0ebe 8acd a83e 11b0 a1be
00000110: 18e7 42be dfe1 46be 3562 0d3f c142 a03d
00000120: 7db6 fb3e b537 a3be 7313 7dbe 0845 40be
00000130: 8c16 83be 9bcb 413e 1dca 673e 7d80 963e
00000140: 748c 04be f0c9 cabe 9c72 283e e69d afbd
00000150: 0609 483e 56ee 76be 31c9 b33e 5834 93be
00000160: 8ac5 68be edb3 0f3e f222 753d cc6c 18bd
00000170: 2c94 863e 0d88 573e ada9 b1be dedb 8fbe
00000180: 67d7 d03e 29aa 7bbe d449 45be 555e efbe
00000190: 743a 8ebe a586 d73d 829e 58bd 3c57 4cbe
000001a0: 4bdf 773d 54a6 d9be 8f2f 4abe 5e9b a6be
000001b0: 93b9 99be f552 82be 17a8 e03e 73f8 383e
000001c0: aec9 6c3e 8f1b d0be cb24 80be fada a9be
000001d0: 2c95 de3c f53d c7be 227c edbd 40d6 48be
000001e0: 6a98 543d 2a28 45be a5f7 81bb ce7e 53be
000001f0: 56b9 73be f487 aabe 4e8c a0bd 122d b5be
00000200: 21fa 9b3e 4d97 47bd 4f7e 973e c887 303e
00000210: 0a96 c9be 821d 963e ac14 06be d92a 96be
00000220: 5e16 2fbe 1bba fdbe 2aff a13d b8e5 d8bd
00000230: e1a0 bd3d 40a0 93be a7b6 bc3e 16ea 98be
00000240: 73a8 7abd 0e1d bd3d 0807 3d3e 500d 933e
00000250: 1e15 d13e 7d94 d5be f635 713e 71f8 b8be
00000260: ae42 c6bd 9b88 16be ffb6 ba3e a1e1 eabe
00000270: 1020 2e3e 6296 033e ef9b bb3d d9c4 fdbd
0.20880021 0.39761525 -0.09757525 0.395816 -0.115243465 0.15568727 -0.27489293 0.31048563
0.3611364 -0.24705465 0.44370005 0.06440496 0.25228012 0.18334039 0.19197856 -0.17565161
0.37615588 -0.050994173 -0.20828444 0.2090077 -0.27716634 0.08599492 -0.23951834 0.23583628
-0.32199708 -0.15130413 -0.20484452 -0.1469301 0.15813756 -0.40348 0.37119865 -0.5133411
0.26417756 0.17366098 -0.1394741 0.37568408 0.032419838 0.38096812 0.09866673 -0.054379374
0.11542898 0.012327969 0.3140439 0.3276285 0.3688171 -0.2854486 0.19026437 0.1381196
0.27561042 -0.1434419 -0.4941341 -0.07135848 -0.3052509 0.40977058 0.19394788 0.15621547
0.19967246 -0.026461009 0.297727 -0.33171654 -0.048547782 -0.21454321 0.13136096 -0.17929576
0.16054362 -0.13870418 0.32969314 -0.3157964 -0.19033468 -0.194221 0.5522798 0.07825232
0.49162665 -0.3187844 -0.2471445 -0.18776333 -0.2560314 0.18925326 0.22635694 0.29394904
-0.12944204 -0.3960719 0.1644997 -0.085750386 0.19534692 -0.24114355 0.35114434 -0.28750873
-0.22731605 0.1403348 0.05984778 -0.03721313 0.2628492 0.21047993 -0.34699765 -0.28097433
0.4078934 -0.2457663 -0.19266444 -0.46751657 -0.2777897 0.10523728 -0.05288554 -0.19955152
0.060515683 -0.4250971 -0.19744705 -0.3254041 -0.30024394 -0.25453916 0.43878242 0.18063526
0.2312381 -0.40646026 -0.2502807 -0.33174878 0.02717074 -0.38914457 -0.11595942 -0.1961298
0.051903166 -0.19253603 -0.003966289 -0.20653841 -0.23801169 -0.3330685 -0.07839261 -0.35385948
0.3046427 -0.048728276 0.29588553 0.17239296 -0.39372283 0.29319388 -0.13093823 -0.29329565
-0.17098376 -0.4955605 0.07909997 -0.105906904 0.09259201 -0.288332 0.36858103 -0.29866093
-0.061195802 0.09234057 0.18459713 0.28721094 0.40836424 -0.4171485 0.2355574 -0.36127046
-0.09680687 -0.14700548 0.3646774 -0.45875266 0.17004418 0.12850335 0.09160601 -0.12391061

net.0.bias f4 [32]
00000000: 66e0 023f 9630 bc3c 3820 a2bc 77cb 93be
00000010: e685 873e 5888 97bd 7b0b 42be bcf5 893e
00000020: b421 c63d 46f7 30be 34b3 38be e45d dcbb
00000030: fb66 af3e 8c26 adbd eab7 81be 316e 83be
00000040: f218 cfbe 2b21 843e ae23 da3e b85c aabe
00000050: 52b0 8b3d 70e4 8d3e e719 0c3e 7198 c0bd
00000060: d605 a43e 653b 9d3e e902 5d3e 1529 22bd
00000070: ae5e 3abe 08fc b03d 5859 69bd f30d c4bd
0.51123655 0.022972386 -0.019790754 -0.2886617 0.26469344 -0.073990524 -0.18949692 0.26945293
0.09674397 -0.17281827 -0.1803711 -0.00672506 0.34258255 -0.08454618 -0.25335628 -0.25670007
-0.4044872 0.25806555 0.42605346 -0.33273864 0.0682074 0.27713346 0.13681756 -0.09404076
0.32035702 0.30709377 0.21583141 -0.03958996 -0.1820018 0.08641821 -0.05696997 -0.09572973

net.2.weight f4 [16, 32]
00000000: 21ec fc3d 2108 403e 9290 b53d 1f8e 433b
00000010: 0007 39bd a870 98bd 5a4d 2d3e 2afb 913d
00000020: 31df 9abd ebcb 53bd 5bd4 073e c056 ea3d
00000030: a267 9d3d fff5 9cbd 4566 2fbd f7f1 a9bd
00000040: 9e5e 013e c4bc 903d 3379 993d 9b24 e03d
00000050: fa68 34be 9435 86bd 6515 b43c 7686 203e
00000060: 9b18 053d 15af 83bd 794e 0a3e e344 0dbd
00000070: c59b d73b 8f8d 0c3e 9749 f03d 2afe 9fbd
00000080: 65ab 3dbe 407e d73d f937 ee3d ae2d 623d
00000090: b370 fcbd bba7 32be acf3 1fbe 22f0 e93d
000000a0: 5d23 8d3d 1d54 183e 41a9 bd3d 2042 373d
000000b0: 79f9 99bc 92aa 09be 62fc 28be a176 3abe
000000c0: 31d3 5c3d a113 c6bd 404c 28bd eb5a d0bd
000000d0: dbb9 2dbd c1d0 febd de4b 02be 2d2f 703d
000000e0: 7331 57bd 8a80 df3d 554a 68bd 34ca 04be
000000f0: 15fb 4ebd e21c a4bd 5d10 95bd 6154 2cbe
00000100: ca01 cb3d 4b41 24be 2a4e 733d c9c9 d63d
00000110: 228e 453e b675 a0bd 6976 6d3d 5572 81bd
00000120: 7084 473d 7665 203e 6ec2 133d 3d79 5ebd
00000130: e8d5 d73c 0919 fdbd 03c4 483d 801b c0bd
00000140: 3646 143e 1d77 4c3e eea4 483e 1cd2 68bd
00000150: 62a2 68bd 1764 823d bb00 a93d 6e50 c9bd
00000160: a61c 0fbc 499e 51bd 3526 a2bd cdae 99bd
00000170: 1efc 05be 722a 77bd 4c81 49be f174 3b3e
00000180: 9509 243e 5c5e 89bd 2eb4 f2bc f8fc 3cbd
00000190: ee30 bdbd f6db d7bd e7cd 963c f2e2 abbd
000001a0: fed0 22be 765e 81bc 8fa7 a5bc cb85 b5bd
000001b0: 1c17 be3c db3e 22bc 6209 dbbd 0304 57bd
000001c0: 4689 a3bd bc37 4f3e 3812 6bbd 5735 2c3d
000001d0: bee6 213b b380 4c3d fcb9 f53d 232c 173e
000001e0: 32cc 06be 33d7 f93d 5cc5 f33d 5bd3 983d
000001f0: bc16 283d 16bf 3e3e bcf9 20bd f17c 8d3d
00000200: d36b fdbd 3c37 15bd 8116 043e 52e2 b13d
00000210: 1618 e5bd 1d28 11be 7167 f7bd 896f 3ebe
00000220: 1c68 0ebe fc0f 33bd e654 f43d 3765 f23c
00000230: 0a99 0ebe c048 14be f41a b43d 50a6 06be
00000240: bf4e b2bc 102f a83d 4d8e a7bd 1ae8 9dbc
00000250: bda2 99bc fd4d 2bbd d7d1 ccbd b6fe 2bbe
00000260: 0854 12be 9bdb c1bd b7cd 2e3e b8de aebd
00000270: 7d1e f3bd 1c83 2f3d 4fb2 3b3d 515d c63d
00000280: 57ec 083e cfda 783d 3ded 49be 6b17 1e3d
00000290: 97c3 263e 43b2 fd3c 5cb6 34be 313a 453e
000002a0: ba31 d3bd 73c6 d9bd 120a 06be af78 37bd
000002b0: 6392 f43d df55 853d 9dff d83b 3936 ecbd
000002c0: fd8b 2cbe e95f 7c3d dc57 433e 2bf6 be3d
000002d0: 3c73 08bd e209 8ebb cc51 10be e540 62bc
000002e0: 4889 753d 66c2 063e bf88 ae3d 93e9 22be
000002f0: 6111 923d 1d92 02be d904 013d 885e 423e
00000300: abf9 1c3d d1b0 e63d d349 1dbe 47ad 4dba
00000310: 9867 213e 974d 0c3c 0070 18be c027 0ebd
00000320: b37a 093e 5556 cf3d ed85 cf3d c97e 1abe
00000330: fe7e c8bd 34ee 993d 2b6d 2ebd f83b 77bc
00000340: ea52 2dbd a8d3 563e f93b 873c 983d 5bbb
00000350: be09 993c e1d7 19be bdfa 26be 515f 02bb
00000360: f9b7 d1bd bb3a c53d 75ea 96bd e12c 90bd
00000370: b466 873d 2c51 5a3d 1de2 de3d 4d63 eabc
00000380: 01a4 d2bd b3e0 263d e708 11be 9379 18be
00000390: 4781 3abd 72e0 c1bd 07b9 14be 8852 a43d
000003a0: ba43 d03d 4cba 1c3c 974d a0bd 208d 41be
000003b0: 1428 e4bd f2a7 633c d0d1 713d d399 93bd
000003c0: 057f cbbd b02a 5d3d d506 2dbe 9e42 a83d
000003d0: e1d2 debd a632 18bd 7d39 80bd a9a1 88bc
000003e0: 4ed9 b0bd 1306 ad3d 69cc 07bd a8c6 be3d
000003f0: d903 153e a24b e7bd ccbb 23be 137e df3d
0.123497255 0.18753101 0.08865465 0.002983935 -0.04517269 -0.074433625 0.16924039 0.07127984
-0.07562102 -0.051708143 0.13264601 0.114423275 0.07685782 -0.076641075 -0.04282214 -0.08298104
0.1263375 0.07067254 0.0749382 0.10944482 -0.1761817 -0.06553188 0.021982858 0.15676293
0.03249417 -0.064298786 0.13506497 -0.034489524 0.0065798485 0.13725875 0.11732786 -0.0781215
-0.18522413 0.10522127 0.1163177 0.055219345 -0.12326183 -0.17446797 -0.15620297 0.11422755
0.06891511 0.14875837 0.09260798 0.044740796 -0.018795716 -0.13443974 -0.16502526 -0.18209316
0.053912345 -0.09671713 -0.041088343 -0.10173591 -0.042413574 -0.124421604 -0.12724254 0.05863874
-0.052537393 0.10913189 -0.056711514 -0.1296776 -0.05053242 -0.080133215 -0.07278512 -0.16829063
0.099124506 -0.16040532 0.059400715 0.10487706 0.192925 -0.078349516 0.057974253 -0.06320635
0.048710287 0.15663704 0.036074094 -0.05431484 0.026347116 -0.12358291 0.049015056 -0.09380245
0.14479908 0.19967313 0.19594166 -0.056841 -0.056795485 0.06366747 0.082520925 -0.09829794
-0.008734858 -0.051176343 -0.07917444 -0.07504044 -0.13084456 -0.060343213 -0.19678229 0.18306328
0.1601928 -0.06707451 -0.029626932 -0.046139687 -0.09237848 -0.10540001 0.018408729 -0.08392896
-0.15900037 -0.015792113 -0.0202215 -0.088634096 0.023204379 -0.009902681 -0.10695149 -0.05249406
-0.07985167 0.20236105 -0.05739042 0.042043056 0.0024704183 0.049927425 0.11998364 0.1476293
-0.13163832 0.12199249 0.11902878 0.07462188 0.041037306 0.18627581 -0.039300665 0.06908596
-0.123740815 -0.03642963 0.1289921 0.08685745 -0.11186235 -0.14175458 -0.12080277 -0.18597235
-0.13906902 -0.043716416 0.119302556 0.029589279 -0.13925567 -0.14480877 0.087942034 -0.1314938
-0.021766065 0.082121015 -0.081814386 -0.019275714 -0.018754357 -0.041822422 -0.10000961 -0.16796383
-0.14289868 -0.094657145 0.17070661 -0.08538574 -0.118710496 0.042849645 0.045824345 0.096857674
0.13371406 0.060755547 -0.19719405 0.038596552 0.16285549 0.03096879 -0.1764769 0.1926048
-0.10312219 -0.10633554 -0.13089779 -0.044792827 0.119419836 0.06510519 0.0066222684 -0.1153378
-0.16850276 0.061614905 0.19076484 0.093242966 -0.03331302 -0.004334674 -0.14093703 -0.013809417
0.059945375 0.13160095 0.08522176 -0.15909414 0.07132221 -0.1275105 0.031498764 0.18981373
0.03832404 0.11264194 -0.15360193 -0.000784595 0.15762174 0.008563421 -0.14886475 -0.034705877
0.13425712 0.101238884 0.10132966 -0.15087427 -0.09789847 0.07516137 -0.04258458 -0.015089981
-0.0423154 0.20979178 0.01650809 -0.003345346 0.018681403 -0.15023758 -0.16306587 -0.0019893239
-0.10240168 0.096303426 -0.07368938 -0.0703981 0.06611386 0.053300068 0.108829714 -0.028611803
-0.102851875 0.040741634 -0.14163552 -0.14890127 -0.045533445 -0.09466638 -0.14523707 0.08023554
0.10169168 0.009565901 -0.07827299 -0.18901491 -0.11140457 0.013895022 0.059037983 -0.07207074
-0.099363364 0.053995788 -0.16897137 0.08215831 -0.10880066 -0.037157677 -0.06260965 -0.016678648
-0.086351976 0.08448424 -0.033153925 0.093152344 0.14552249 -0.11293723 -0.15989608 0.109127186

net.2.bias f4 [16]
00000000: 5876 89bc 9373 24be 6309 3d3e 88c0 033e
00000010: f218 1fbe 9cf0 093e 8170 ba3d d4d5 283d
00000020: e18c 613d 2c70 6bbe db1d 7b3e 6e3b fd3c
00000030: 3d3a 56bd 3788 1cbe 110e f23b 8905 df3c
-0.016780064 -0.16059713 0.18460612 0.12866414 -0.1553686 0.13470691 0.0910349 0.041219547
0.055065993 -0.22992009 0.24523108 0.030912127 -0.052301634 -0.15286337 0.0073869308 0.027224319

net.4.weight f4 [1, 16]
00000000: 4c50 9bbd 5ff6 023e 30e5 1d3e ce16 5e3e
00000010: 6aa8 bbbd fc42 fd3d e0d7 1c3e b194 35be
00000020: fa4f 51be ba91 44be 090c 6e3e 9e56 3fbe
00000030: 67db 81be 44ab da3d 37a6 1e3e 9798 663e
-0.07583675 0.12789296 0.1541946 0.21688387 -0.09162982 0.12366292 0.15316725 -0.17732503
-0.20440665 -0.19196215 0.23246779 -0.18685386 -0.25362703 0.106771976 0.15493093 0.22519146
